…
[09/10 03:38:30] cifar100-global-group2-resnet34 INFO: Epoch 118/120, Acc=0.7770, Val Loss=0.9232, lr=0.0001
[09/10 03:39:02] cifar100-global-group2-resnet34 INFO: Epoch 119/120, Acc=0.7784, Val Loss=0.9263, lr=0.0001
[09/10 03:39:02] cifar100-global-group2-resnet34 INFO: Best Acc=0.7789
[09/10 03:39:02] cifar100-global-group2-resnet34 INFO: Loading the sparse model from run/cifar100/prune/cifar100-global-group2-resnet34/reg_cifar100_resnet34_group2_0.0004.pth...
[09/10 03:39:04] cifar100-global-group2-resnet34 INFO: Pruning...
[09/10 03:39:16] cifar100-global-group2-resnet34 INFO: ResNet(
  (conv1): Conv2d(3, 29, kernel_size=(3, 3), stride=(1, 1), padding=(1, 1), bias=False)
  (bn1): BatchNorm2d(29, eps=1e-05, momentum=0.1, affine=True, track_running_stats=True)
  (layer1): Sequential(
    (0): BasicBlock(
      (conv1): Conv2d(29, 42, kernel_size=(3, 3), stride=(1, 1), padding=(1, 1), bias=False)
      (bn1): BatchNorm2d(42, eps=1e-05, momentum=0.1, affine=True, track_running_stats=True)
      (conv2): Conv2d(42, 29, kernel_size=(3, 3), stride=(1, 1), padding=(1, 1), bias=False)
      (bn2): BatchNorm2d(29, eps=1e-05, momentum=0.1, affine=True, track_running_stats=True)
      (shortcut): Sequential()
    )
    (1): BasicBlock(
      (conv1): Conv2d(29, 40, kernel_size=(3, 3), stride=(1, 1), padding=(1, 1), bias=False)
      (bn1): BatchNorm2d(40, eps=1e-05, momentum=0.1, affine=True, track_running_stats=True)
      (conv2): Conv2d(40, 29, kernel_size=(3, 3), stride=(1, 1), padding=(1, 1), bias=False)
      (bn2): BatchNorm2d(29, eps=1e-05, momentum=0.1, affine=True, track_running_stats=True)
      (shortcut): Sequential()
    )
    (2): BasicBlock(
      (conv1): Conv2d(29, 42, kernel_size=(3, 3), stride=(1, 1), padding=(1, 1), bias=False)
      (bn1): BatchNorm2d(42, eps=1e-05, momentum=0.1, affine=True, track_running_stats=True)
      (conv2): Conv2d(42, 29, kernel_size=(3, 3), stride=(1, 1), padding=(1, 1), bias=False)
      (bn2): BatchNorm2d(29, eps=1e-05, momentum=0.1, affine=True, track_running_stats=True)
      (shortcut): Sequential()
    )
  )
  (layer2): Sequential(
    (0): BasicBlock(
      (conv1): Conv2d(29, 94, kernel_size=(3, 3), stride=(2, 2), padding=(1, 1), bias=False)
      (bn1): BatchNorm2d(94, eps=1e-05, momentum=0.1, affine=True, track_running_stats=True)
      (conv2): Conv2d(94, 105, kernel_size=(3, 3), stride=(1, 1), padding=(1, 1), bias=False)
      (bn2): BatchNorm2d(105, eps=1e-05, momentum=0.1, affine=True, track_running_stats=True)
      (shortcut): Sequential(
        (0): Conv2d(29, 105, kernel_size=(1, 1), stride=(2, 2), bias=False)
        (1): BatchNorm2d(105, eps=1e-05, momentum=0.1, affine=True, track_running_stats=True)
      )
    )
    (1): BasicBlock(
      (conv1): Conv2d(105, 73, kernel_size=(3, 3), stride=(1, 1), padding=(1, 1), bias=False)
      (bn1): BatchNorm2d(73, eps=1e-05, momentum=0.1, affine=True, track_running_stats=True)
      (conv2): Conv2d(73, 105, kernel_size=(3, 3), stride=(1, 1), padding=(1, 1), bias=False)
      (bn2): BatchNorm2d(105, eps=1e-05, momentum=0.1, affine=True, track_running_stats=True)
      (shortcut): Sequential()
    )
    (2): BasicBlock(
      (conv1): Conv2d(105, 83, kernel_size=(3, 3), stride=(1, 1), padding=(1, 1), bias=False)
      (bn1): BatchNorm2d(83, eps=1e-05, momentum=0.1, affine=True, track_running_stats=True)
      (conv2): Conv2d(83, 105, kernel_size=(3, 3), stride=(1, 1), padding=(1, 1), bias=False)
      (bn2): BatchNorm2d(105, eps=1e-05, momentum=0.1, affine=True, track_running_stats=True)
      (shortcut): Sequential()
    )
    (3): BasicBlock(
      (conv1): Conv2d(105, 75, kernel_size=(3, 3), stride=(1, 1), padding=(1, 1), bias=False)
      (bn1): BatchNorm2d(75, eps=1e-05, momentum=0.1, affine=True, track_running_stats=True)
      (conv2): Conv2d(75, 105, kernel_size=(3, 3), stride=(1, 1), padding=(1, 1), bias=False)
      (bn2): BatchNorm2d(105, eps=1e-05, momentum=0.1, affine=True, track_running_stats=True)
      (shortcut): Sequential()
    )
  )
  (layer3): Sequential(
    (0): BasicBlock(
      (conv1): Conv2d(105, 188, kernel_size=(3, 3), stride=(2, 2), padding=(1, 1), bias=False)
      (bn1): BatchNorm2d(188, eps=1e-05, momentum=0.1, affine=True, track_running_stats=True)
      (conv2): Conv2d(188, 239, kernel_size=(3, 3), stride=(1, 1), padding=(1, 1), bias=False)
      (bn2): BatchNorm2d(239, eps=1e-05, momentum=0.1, affine=True, track_running_stats=True)
      (shortcut): Sequential(
        (0): Conv2d(105, 239, kernel_size=(1, 1), stride=(2, 2), bias=False)
        (1): BatchNorm2d(239, eps=1e-05, momentum=0.1, affine=True, track_running_stats=True)
      )
    )
    (1): BasicBlock(
      (conv1): Conv2d(239, 139, kernel_size=(3, 3), stride=(1, 1), padding=(1, 1), bias=False)
      (bn1): BatchNorm2d(139, eps=1e-05, momentum=0.1, affine=True, track_running_stats=True)
      (conv2): Conv2d(139, 239, kernel_size=(3, 3), stride=(1, 1), padding=(1, 1), bias=False)
      (bn2): BatchNorm2d(239, eps=1e-05, momentum=0.1, affine=True, track_running_stats=True)
      (shortcut): Sequential()
    )
    (2): BasicBlock(
      (conv1): Conv2d(239, 158, kernel_size=(3, 3), stride=(1, 1), padding=(1, 1), bias=False)
      (bn1): BatchNorm2d(158, eps=1e-05, momentum=0.1, affine=True, track_running_stats=True)
      (conv2): Conv2d(158, 239, kernel_size=(3, 3), stride=(1, 1), padding=(1, 1), bias=False)
      (bn2): BatchNorm2d(239, eps=1e-05, momentum=0.1, affine=True, track_running_stats=True)
      (shortcut): Sequential()
    )
    (3): BasicBlock(
      (conv1): Conv2d(239, 146, kernel_size=(3, 3), stride=(1, 1), padding=(1, 1), bias=False)
      (bn1): BatchNorm2d(146, eps=1e-05, momentum=0.1, affine=True, track_running_stats=True)
      (conv2): Conv2d(146, 239, kernel_size=(3, 3), stride=(1, 1), padding=(1, 1), bias=False)
      (bn2): BatchNorm2d(239, eps=1e-05, momentum=0.1, affine=True, track_running_stats=True)
      (shortcut): Sequential()
    )
    (4): BasicBlock(
      (conv1): Conv2d(239, 150, kernel_size=(3, 3), stride=(1, 1), padding=(1, 1), bias=False)
      (bn1): BatchNorm2d(150, eps=1e-05, momentum=0.1, affine=True, track_running_stats=True)
      (conv2): Conv2d(150, 239, kernel_size=(3, 3), stride=(1, 1), padding=(1, 1), bias=False)
      (bn2): BatchNorm2d(239, eps=1e-05, momentum=0.1, affine=True, track_running_stats=True)
      (shortcut): Sequential()
    )
    (5): BasicBlock(
      (conv1): Conv2d(239, 166, kernel_size=(3, 3), stride=(1, 1), padding=(1, 1), bias=False)
      (bn1): BatchNorm2d(166, eps=1e-05, momentum=0.1, affine=True, track_running_stats=True)
      (conv2): Conv2d(166, 239, kernel_size=(3, 3), stride=(1, 1), padding=(1, 1), bias=False)
      (bn2): BatchNorm2d(239, eps=1e-05, momentum=0.1, affine=True, track_running_stats=True)
      (shortcut): Sequential()
    )
  )
  (layer4): Sequential(
    (0): BasicBlock(
      (conv1): Conv2d(239, 447, kernel_size=(3, 3), stride=(2, 2), padding=(1, 1), bias=False)
      (bn1): BatchNorm2d(447, eps=1e-05, momentum=0.1, affine=True, track_running_stats=True)
      (conv2): Conv2d(447, 346, kernel_size=(3, 3), stride=(1, 1), padding=(1, 1), bias=False)
      (bn2): BatchNorm2d(346, eps=1e-05, momentum=0.1, affine=True, track_running_stats=True)
      (shortcut): Sequential(
        (0): Conv2d(239, 346, kernel_size=(1, 1), stride=(2, 2), bias=False)
        (1): BatchNorm2d(346, eps=1e-05, momentum=0.1, affine=True, track_running_stats=True)
      )
    )
    (1): BasicBlock(
      (conv1): Conv2d(346, 337, kernel_size=(3, 3), stride=(1, 1), padding=(1, 1), bias=False)
      (bn1): BatchNorm2d(337, eps=1e-05, momentum=0.1, affine=True, track_running_stats=True)
      (conv2): Conv2d(337, 346, kernel_size=(3, 3), stride=(1, 1), padding=(1, 1), bias=False)
      (bn2): BatchNorm2d(346, eps=1e-05, momentum=0.1, affine=True, track_running_stats=True)
      (shortcut): Sequential()
    )
    (2): BasicBlock(
      (conv1): Conv2d(346, 475, kernel_size=(3, 3), stride=(1, 1), padding=(1, 1), bias=False)
      (bn1): BatchNorm2d(475, eps=1e-05, momentum=0.1, affine=True, track_running_stats=True)
      (conv2): Conv2d(475, 346, kernel_size=(3, 3), stride=(1, 1), padding=(1, 1), bias=False)
      (bn2): BatchNorm2d(346, eps=1e-05, momentum=0.1, affine=True, track_running_stats=True)
      (shortcut): Sequential()
    )
  )
  (linear): Linear(in_features=346, out_features=100, bias=True)
)
[09/10 03:39:17] cifar100-global-group2-resnet34 INFO: Params: 21.33 M => 12.03 M (56.41%)
[09/10 03:39:17] cifar100-global-group2-resnet34 INFO: FLOPs: 1161.50 M => 577.76 M (49.74%, 2.01X )
[09/10 03:39:17] cifar100-global-group2-resnet34 INFO: Acc: 0.7789 => 0.6054
[09/10 03:39:17] cifar100-global-group2-resnet34 INFO: Val Loss: 0.9271 => 1.7180
[09/10 03:39:17] cifar100-global-group2-resnet34 INFO: Finetuning...
…
