…
69632410435, 'layer3.0.conv1.weight': 1.9085717834501756, 'layer3.0.conv2.weight': 1.3928731664799712, 'layer3.0.shortcut.0.weight': 1.0151082253086658, 'layer3.1.conv1.weight': 1.1156909138574034, 'layer3.1.conv2.weight': 1.0423021939875843, 'layer4.0.conv1.weight': 1.1962153453263336, 'layer4.0.conv2.weight': 1.1286271623802469, 'layer4.0.shortcut.0.weight': 1.0113318180540762, 'layer4.1.conv1.weight': 1.0485546292293186, 'layer4.1.conv2.weight': 1.0, 'linear.weight': 1.210504883196713, 'linear.bias': 1.1897009847784794}
[09/09 11:01:03] cifar100-global-group2-resnet18 INFO: ResNet(
  (conv1): Conv2d(3, 31, kernel_size=(3, 3), stride=(1, 1), padding=(1, 1), bias=False)
  (bn1): BatchNorm2d(31, eps=1e-05, momentum=0.1, affine=True, track_running_stats=True)
  (layer1): Sequential(
    (0): BasicBlock(
      (conv1): Conv2d(31, 50, kernel_size=(3, 3), stride=(1, 1), padding=(1, 1), bias=False)
      (bn1): BatchNorm2d(50, eps=1e-05, momentum=0.1, affine=True, track_running_stats=True)
      (conv2): Conv2d(50, 31, kernel_size=(3, 3), stride=(1, 1), padding=(1, 1), bias=False)
      (bn2): BatchNorm2d(31, eps=1e-05, momentum=0.1, affine=True, track_running_stats=True)
      (shortcut): Sequential()
    )
    (1): BasicBlock(
      (conv1): Conv2d(31, 48, kernel_size=(3, 3), stride=(1, 1), padding=(1, 1), bias=False)
      (bn1): BatchNorm2d(48, eps=1e-05, momentum=0.1, affine=True, track_running_stats=True)
      (conv2): Conv2d(48, 31, kernel_size=(3, 3), stride=(1, 1), padding=(1, 1), bias=False)
      (bn2): BatchNorm2d(31, eps=1e-05, momentum=0.1, affine=True, track_running_stats=True)
      (shortcut): Sequential()
    )
  )
  (layer2): Sequential(
    (0): BasicBlock(
      (conv1): Conv2d(31, 99, kernel_size=(3, 3), stride=(2, 2), padding=(1, 1), bias=False)
      (bn1): BatchNorm2d(99, eps=1e-05, momentum=0.1, affine=True, track_running_stats=True)
      (conv2): Conv2d(99, 101, kernel_size=(3, 3), stride=(1, 1), padding=(1, 1), bias=False)
      (bn2): BatchNorm2d(101, eps=1e-05, momentum=0.1, affine=True, track_running_stats=True)
      (shortcut): Sequential(
        (0): Conv2d(31, 101, kernel_size=(1, 1), stride=(2, 2), bias=False)
        (1): BatchNorm2d(101, eps=1e-05, momentum=0.1, affine=True, track_running_stats=True)
      )
    )
    (1): BasicBlock(
      (conv1): Conv2d(101, 99, kernel_size=(3, 3), stride=(1, 1), padding=(1, 1), bias=False)
      (bn1): BatchNorm2d(99, eps=1e-05, momentum=0.1, affine=True, track_running_stats=True)
      (conv2): Conv2d(99, 101, kernel_size=(3, 3), stride=(1, 1), padding=(1, 1), bias=False)
      (bn2): BatchNorm2d(101, eps=1e-05, momentum=0.1, affine=True, track_running_stats=True)
      (shortcut): Sequential()
    )
  )
  (layer3): Sequential(
    (0): BasicBlock(
      (conv1): Conv2d(101, 211, kernel_size=(3, 3), stride=(2, 2), padding=(1, 1), bias=False)
      (bn1): BatchNorm2d(211, eps=1e-05, momentum=0.1, affine=True, track_running_stats=True)
      (conv2): Conv2d(211, 226, kernel_size=(3, 3), stride=(1, 1), padding=(1, 1), bias=False)
      (bn2): BatchNorm2d(226, eps=1e-05, momentum=0.1, affine=True, track_running_stats=True)
      (shortcut): Sequential(
        (0): Conv2d(101, 226, kernel_size=(1, 1), stride=(2, 2), bias=False)
        (1): BatchNorm2d(226, eps=1e-05, momentum=0.1, affine=True, track_running_stats=True)
      )
    )
    (1): BasicBlock(
      (conv1): Conv2d(226, 186, kernel_size=(3, 3), stride=(1, 1), padding=(1, 1), bias=False)
      (bn1): BatchNorm2d(186, eps=1e-05, momentum=0.1, affine=True, track_running_stats=True)
      (conv2): Conv2d(186, 226, kernel_size=(3, 3), stride=(1, 1), padding=(1, 1), bias=False)
      (bn2): BatchNorm2d(226, eps=1e-05, momentum=0.1, affine=True, track_running_stats=True)
      (shortcut): Sequential()
    )
  )
  (layer4): Sequential(
    (0): BasicBlock(
      (conv1): Conv2d(226, 489, kernel_size=(3, 3), stride=(2, 2), padding=(1, 1), bias=False)
      (bn1): BatchNorm2d(489, eps=1e-05, momentum=0.1, affine=True, track_running_stats=True)
      (conv2): Conv2d(489, 315, kernel_size=(3, 3), stride=(1, 1), padding=(1, 1), bias=False)
      (bn2): BatchNorm2d(315, eps=1e-05, momentum=0.1, affine=True, track_running_stats=True)
      (shortcut): Sequential(
        (0): Conv2d(226, 315, kernel_size=(1, 1), stride=(2, 2), bias=False)
        (1): BatchNorm2d(315, eps=1e-05, momentum=0.1, affine=True, track_running_stats=True)
      )
    )
    (1): BasicBlock(
      (conv1): Conv2d(315, 485, kernel_size=(3, 3), stride=(1, 1), padding=(1, 1), bias=False)
      (bn1): BatchNorm2d(485, eps=1e-05, momentum=0.1, affine=True, track_running_stats=True)
      (conv2): Conv2d(485, 315, kernel_size=(3, 3), stride=(1, 1), padding=(1, 1), bias=False)
      (bn2): BatchNorm2d(315, eps=1e-05, momentum=0.1, affine=True, track_running_stats=True)
      (shortcut): Sequential()
    )
  )
  (linear): Linear(in_features=315, out_features=100, bias=True)
)
[09/09 11:01:04] cifar100-global-group2-resnet18 INFO: Params: 11.22 M => 7.00 M (62.37%)
[09/09 11:01:04] cifar100-global-group2-resnet18 INFO: FLOPs: 556.70 M => 307.58 M (55.25%, 1.81X )
[09/09 11:01:04] cifar100-global-group2-resnet18 INFO: Acc: 0.7751 => 0.2391
[09/09 11:01:04] cifar100-global-group2-resnet18 INFO: Val Loss: 0.9459 => 3.8664
[09/09 11:01:04] cifar100-global-group2-resnet18 INFO: Finetuning...
…
