…
[09/09 21:02:48] cifar100-global-group2-vgg19 INFO: Epoch 118/120, Acc=0.7108, Val Loss=1.2381, lr=0.0001
[09/09 21:04:40] cifar100-global-group2-vgg19 INFO: Epoch 119/120, Acc=0.7115, Val Loss=1.2372, lr=0.0001
[09/09 21:04:40] cifar100-global-group2-vgg19 INFO: Best Acc=0.7115
[09/09 21:04:40] cifar100-global-group2-vgg19 INFO: Loading the sparse model from run/cifar100/prune/cifar100-global-group2-vgg19/reg_cifar100_vgg19_group2_0.0007.pth...
[09/09 21:04:42] cifar100-global-group2-vgg19 INFO: Pruning...
[09/09 21:06:00] cifar100-global-group2-vgg19 INFO: VGG(
  (block0): Sequential(
    (0): Conv2d(3, 19, kernel_size=(3, 3), stride=(1, 1), padding=(1, 1))
    (1): BatchNorm2d(19, eps=1e-05, momentum=0.1, affine=True, track_running_stats=True)
    (2): ReLU(inplace=True)
    (3): Conv2d(19, 45, kernel_size=(3, 3), stride=(1, 1), padding=(1, 1))
    (4): BatchNorm2d(45, eps=1e-05, momentum=0.1, affine=True, track_running_stats=True)
  )
  (block1): Sequential(
    (0): Conv2d(45, 37, kernel_size=(3, 3), stride=(1, 1), padding=(1, 1))
    (1): BatchNorm2d(37, eps=1e-05, momentum=0.1, affine=True, track_running_stats=True)
    (2): ReLU(inplace=True)
    (3): Conv2d(37, 101, kernel_size=(3, 3), stride=(1, 1), padding=(1, 1))
    (4): BatchNorm2d(101, eps=1e-05, momentum=0.1, affine=True, track_running_stats=True)
  )
  (block2): Sequential(
    (0): Conv2d(101, 106, kernel_size=(3, 3), stride=(1, 1), padding=(1, 1))
    (1): BatchNorm2d(106, eps=1e-05, momentum=0.1, affine=True, track_running_stats=True)
    (2): ReLU(inplace=True)
    (3): Conv2d(106, 118, kernel_size=(3, 3), stride=(1, 1), padding=(1, 1))
    (4): BatchNorm2d(118, eps=1e-05, momentum=0.1, affine=True, track_running_stats=True)
    (5): ReLU(inplace=True)
    (6): Conv2d(118, 69, kernel_size=(3, 3), stride=(1, 1), padding=(1, 1))
    (7): BatchNorm2d(69, eps=1e-05, momentum=0.1, affine=True, track_running_stats=True)
    (8): ReLU(inplace=True)
    (9): Conv2d(69, 189, kernel_size=(3, 3), stride=(1, 1), padding=(1, 1))
    (10): BatchNorm2d(189, eps=1e-05, momentum=0.1, affine=True, track_running_stats=True)
  )
  (block3): Sequential(
    (0): Conv2d(189, 154, kernel_size=(3, 3), stride=(1, 1), padding=(1, 1))
    (1): BatchNorm2d(154, eps=1e-05, momentum=0.1, affine=True, track_running_stats=True)
    (2): ReLU(inplace=True)
    (3): Conv2d(154, 144, kernel_size=(3, 3), stride=(1, 1), padding=(1, 1))
    (4): BatchNorm2d(144, eps=1e-05, momentum=0.1, affine=True, track_running_stats=True)
    (5): ReLU(inplace=True)
    (6): Conv2d(144, 55, kernel_size=(3, 3), stride=(1, 1), padding=(1, 1))
    (7): BatchNorm2d(55, eps=1e-05, momentum=0.1, affine=True, track_running_stats=True)
    (8): ReLU(inplace=True)
    (9): Conv2d(55, 47, kernel_size=(3, 3), stride=(1, 1), padding=(1, 1))
    (10): BatchNorm2d(47, eps=1e-05, momentum=0.1, affine=True, track_running_stats=True)
  )
  (block4): Sequential(
    (0): Conv2d(47, 50, kernel_size=(3, 3), stride=(1, 1), padding=(1, 1))
    (1): BatchNorm2d(50, eps=1e-05, momentum=0.1, affine=True, track_running_stats=True)
    (2): ReLU(inplace=True)
    (3): Conv2d(50, 51, kernel_size=(3, 3), stride=(1, 1), padding=(1, 1))
    (4): BatchNorm2d(51, eps=1e-05, momentum=0.1, affine=True, track_running_stats=True)
    (5): ReLU(inplace=True)
    (6): Conv2d(51, 115, kernel_size=(3, 3), stride=(1, 1), padding=(1, 1))
    (7): BatchNorm2d(115, eps=1e-05, momentum=0.1, affine=True, track_running_stats=True)
    (8): ReLU(inplace=True)
    (9): Conv2d(115, 34, kernel_size=(3, 3), stride=(1, 1), padding=(1, 1))
    (10): BatchNorm2d(34, eps=1e-05, momentum=0.1, affine=True, track_running_stats=True)
  )
  (pool0): MaxPool2d(kernel_size=2, stride=2, padding=0, dilation=1, ceil_mode=False)
  (pool1): MaxPool2d(kernel_size=2, stride=2, padding=0, dilation=1, ceil_mode=False)
  (pool2): MaxPool2d(kernel_size=2, stride=2, padding=0, dilation=1, ceil_mode=False)
  (pool3): MaxPool2d(kernel_size=2, stride=2, padding=0, dilation=1, ceil_mode=False)
  (pool4): AdaptiveAvgPool2d(output_size=(1, 1))
  (classifier): Linear(in_features=34, out_features=100, bias=True)
)
[09/09 21:06:01] cifar100-global-group2-vgg19 INFO: Params: 20.09 M => 1.15 M (5.74%)
[09/09 21:06:01] cifar100-global-group2-vgg19 INFO: FLOPs: 512.73 M => 58.01 M (11.31%, 8.84X )
[09/09 21:06:01] cifar100-global-group2-vgg19 INFO: Acc: 0.7115 => 0.6063
[09/09 21:06:01] cifar100-global-group2-vgg19 INFO: Val Loss: 1.2372 => 1.6717
[09/09 21:06:01] cifar100-global-group2-vgg19 INFO: Finetuning...
…
